model/Adam_batch_size=2048_epoch=300.pt (torch, 212635 bytes, 10 tensors)

lstm.weight_ih_l0 f4 [256, 1]
000000 68 a7 97 bd 7e 43 14 3d b8 cc db 3d 68 61 d3 bd
       -0.07404977 0.036197178 0.107324064 -0.10321313
000010 3b bc ac bc e3 e1 f9 3d e7 fc 87 bd 9b 27 c6 3d
       -0.021085849 0.122012876 -0.06640034 0.09675523
000020 a2 94 30 3f 15 cd 04 be 7c d8 99 3d 0f 1d 9b 3d
       0.68976796 -0.12968858 0.07511994 0.07573902
000030 bb fa b8 3e 04 c5 86 3e e7 76 b0 3d 8b df 87 3e
       0.36128792 0.26322186 0.08616429 0.26537737
000040 a1 0e 26 be 7b 1b ed 3c bd 0d 61 3e 99 74 9f 3e
       -0.16216518 0.028943768 0.21977897 0.31143644
000050 69 a8 be 3d cb 13 31 be 99 26 91 3d fa fa 4d 3e
       0.093094654 -0.17292707 0.0708744 0.20115271
000060 51 ac a0 bd 0f 84 eb 3b a0 ba 8d bd 2f 18 12 3f
       -0.07845367 0.0071873735 -0.069203615 0.5706815
000070 31 2d 75 3e 8b 95 f3 3d e3 5f 74 3e 04 eb 23 3b
       0.2394302 0.118937574 0.23864703 0.0025011906
000080 f7 76 74 3d 2f 43 17 3e 53 d6 03 3e ce 17 95 3e
       0.059683766 0.14771722 0.12874727 0.29119724
000090 4e b4 bb bd 5a 2d a9 3d cb 3d 18 be 1a 15 f3 3d
       -0.0916525 0.08260603 -0.14867322 0.11869259
0000a0 09 48 0c bd 5b 75 9a bd ed f1 d9 3f 9e 63 30 3d
       -0.034248386 -0.07541915 1.7026955 0.043063752
0000b0 5c 6f 6c 3e 37 af 55 bc fb e7 07 3f 92 72 cf 3c
       0.23089355 -0.013042263 0.5308835 0.025323186
0000c0 8c b7 a8 3d 68 89 15 3e 1c 7f 67 3e 1a 08 43 3e
       0.08238134 0.14603198 0.22607082 0.19046059
0000d0 fb 6d 60 bd f3 5a 22 be 62 a3 dd bd 94 78 44 3e
       -0.054792386 -0.15855007 -0.108221784 0.19186622
0000e0 99 dd 22 3d 20 70 14 3e 05 d5 9c 3d ce f6 ba bd
       0.039762113 0.14495897 0.07657818 -0.091291055
0000f0 b6 4c 46 3c a7 c4 67 be 19 f6 b5 bc aa f7 46 3e
       0.01210325 -0.2263361 -0.022212075 0.19430414
000100 b0 27 df bd 71 a5 e7 3d 25 c9 ac 3d 31 7d 66 3d
       -0.10896242 0.11310852 0.08436803 0.056271736
000110 e9 02 78 bd 90 91 9e 3c fe 3c 41 3e 6c f2 30 3e
       -0.06054965 0.019356519 0.18870923 0.17279977
000120 d8 d7 5c 3e 8f 57 0e be dc 9a 40 3e d9 1c 1e 3f
       0.21566713 -0.13900588 0.18809074 0.6176277
000130 54 c4 0c 3e bb e9 2c 3d 5b b4 70 3d 76 08 91 3d
       0.13746768 0.04221509 0.05876575 0.07081692
000140 a0 5d f4 bd b7 7d 2a 3e 0d ef 6a 3c 54 8c 60 bd
       -0.1193192 0.16649519 0.014339221 -0.054821327
000150 dd 3c 4c 3c 53 74 4a 3e 68 cd ed 3d 83 8f 07 bf
       0.012465683 0.19770937 0.11611444 -0.52953357
000160 95 92 e2 bd 34 5a ac 3c d4 d3 67 3e fc 89 6c 3e
       -0.110631146 0.021039106 0.226394 0.23099512
000170 fc 1e 3b 3d ce 60 c6 bc 20 ce f0 bc d0 24 d5 3c
       0.045683846 -0.024216082 -0.029395163 0.02601853
000180 ea 9f 71 3e fb 4a 89 3e d3 56 5c 3d f7 2c 3a 3e
       0.23596159 0.26815018 0.05379374 0.18181215
000190 28 74 18 3b c4 37 da bd 43 fc c4 bd 08 08 55 bd
       0.0023262594 -0.10655168 -0.096184276 -0.052009612
0001a0 dc 67 0c be b5 f7 a8 3c 8c c0 99 3d 7d e3 c6 3c
       -0.13711494 0.020625928 0.075074285 0.024278397
0001b0 b7 cb 0f bd 4c a0 ca bc 38 71 3f 3b 5e 4c 09 3d
       -0.035106387 -0.024734639 0.002921177 0.033520095
0001c0 f3 02 75 3d c8 a0 8b 3e 76 d6 88 3e bc eb 16 3e
       0.059817266 0.27271104 0.2672612 0.14738363
0001d0 a6 04 59 3e 70 74 1e be 5e 52 8d 3e 17 1e cf bd
       0.2119318 -0.15474105 0.27601904 -0.10113161
0001e0 ca c4 4f 3e df ff 35 bc 65 b9 37 3e be 65 66 3e
       0.20289913 -0.011108368 0.17941816 0.22499749
0001f0 5e 77 2a 3e 27 e0 cd 3c fe 18 1d be d2 cf 1b 3e
       0.16647097 0.025131298 -0.15341565 0.15215996
000200 71 d0 1a be f2 99 51 be e0 c2 8d 3c 01 8b 2e be
       -0.15118577 -0.20468882 0.017304838 -0.17045213
000210 29 de 27 3b 51 3a 8d be 5e 27 a7 bc c4 6c ad bd
       0.0025614596 -0.27583554 -0.020404514 -0.08468011
000220 57 c8 01 3e f9 f0 86 3e 1d ea 7a bc 09 4d 59 bf
       0.1267408 0.26355723 -0.015314606 -0.8488317
000230 0c d8 9b 3e 33 13 2d be cf 3e 22 be 44 4f 39 3f
       0.30438268 -0.16901855 -0.15844272 0.72386575
000240 3f 66 fc bd 2e 24 ea bd a7 97 ab 3d 89 76 58 3e
       -0.123241894 -0.11432682 0.08378535 0.21138968
000250 d9 6a 28 3d b9 96 74 be ef 7d 41 3d d0 c8 83 be
       0.041117523 -0.23885621 0.04723924 -0.25739145
000260 66 a4 6b 3e 60 4b 85 3e 89 c6 06 be d3 47 9c be
       0.23011932 0.2603407 -0.13161673 -0.30523548
000270 13 f6 8a be 85 6b a9 bd a0 b8 14 be 67 fb 2f 3e
       -0.27140865 -0.08272461 -0.14523554 0.17185746
000280 60 7d 3a be 01 17 c0 bd 17 b4 66 bd 50 38 1c be
       -0.1821189 -0.09379388 -0.05632409 -0.15255857
000290 59 c0 3c bd ab f4 ed 3d 6e 10 5a be 7d c1 8d 3e
       -0.046081875 0.11618932 -0.2129533 0.27686682
0002a0 44 bb 5d 3e 38 5b 29 3e f8 4d 33 be 1a 18 c4 bd
       0.21653467 0.16538703 -0.17510211 -0.095749095
0002b0 b9 82 6b be 26 4a 70 3c 79 b9 2f 3d 93 48 65 be
       -0.22999085 0.014666116 0.04290149 -0.22390966
0002c0 c3 b7 08 3d 73 f0 4d 3f 93 d1 b7 3d bd f1 21 be
       0.033378374 0.8044502 0.0897552 -0.15814872
0002d0 b7 7d 0a 3d ce 85 36 be fe 68 21 be 21 eb 46 3e
       0.033811297 -0.1782448 -0.15762708 0.19425632
0002e0 26 7f 89 be 8d 46 2c 3d 8e 9f 13 3e da 80 62 3e
       -0.2685482 0.04205947 0.14416334 0.22119465
0002f0 87 ff a2 3c f6 7d 5b be ce d1 14 3e 11 03 a0 bc
       0.019897236 -0.21434769 0.14533159 -0.019532712
000300 34 18 c0 3d fe 54 b1 ba 88 04 53 3e 21 3a c6 bd
       0.093796164 -0.0013529358 0.20607197 -0.09679056
000310 9d 9e 7a be 84 9b 48 bd d4 90 c7 3d 4c 7e 1e be
       -0.24474569 -0.048976436 0.09744421 -0.15477866
000320 e1 38 90 3d 37 ec 33 3e 42 2d 87 3d 45 83 e2 bd
       0.07042099 0.17570578 0.06600429 -0.11060194
000330 f0 4e 2a bd c5 14 b9 3e dd 7e d5 3d 2b 35 ec bd
       -0.041579187 0.36148658 0.10424588 -0.115335785
000340 aa 6d 25 be 08 54 12 3d 7c 1a df 3d 4b 29 aa bd
       -0.16155115 0.03572467 0.10893723 -0.08308657
000350 ed 96 4f be d0 fa b7 3e f0 29 c7 3d 06 48 5e 3e
       -0.20272417 0.35933542 0.09724796 0.21707162
000360 07 3d 57 3f 7b 41 86 3c 31 38 0f 3e f0 00 95 bd
       0.84077495 0.016388645 0.13986279 -0.072755694
000370 a3 f4 ba bd aa 07 0e 3e 91 38 62 3e ca 2e 84 3d
       -0.09128692 0.13870111 0.22091891 0.06454237
000380 9a e2 14 3d 74 3a 90 bd 19 0d 05 3e a4 fd 2a be
       0.036348917 -0.07042399 0.12993278 -0.16698319
000390 32 c8 39 3e 16 13 6b 3e 38 45 d0 3e 6f 96 c8 3d
       0.18142775 0.229565 0.4067781 0.09794318
0003a0 5c 10 c4 3e 83 20 2f be 7b 7f c1 3e 48 f3 43 3d
       0.3829373 -0.17102246 0.37792572 0.047839433
0003b0 8c ab 34 bd 70 4b f9 bd 8a a2 23 3f da f9 d9 3d
       -0.044108912 -0.12172592 0.6391989 0.106433585
0003c0 2d 09 cd 3d 51 3e 08 be 5b 4d b1 3e d9 c2 35 3e
       0.10011516 -0.13305022 0.3462933 0.1775011
0003d0 bd 0e 05 3e f1 18 9a bd f5 b6 dc bd 5a 3f 61 3e
       0.12993903 -0.075242884 -0.10777084 0.21996823
0003e0 66 d7 3a be 5b 98 33 3e ae f6 50 bd f3 24 56 be
       -0.1824623 0.17538588 -0.051016502 -0.20912533
0003f0 5f d2 10 3e ae eb ac bc 69 2d ec 3e a0 ee b6 bc
       0.1414275 -0.021108475 0.46128395 -0.022330582

lstm.weight_hh_l0 f4 [256, 64]
000000 eb 85 6c bd 7a f4 53 3d 46 31 ad 3d de 2c 65 3c
       -0.0577449 0.051746823 0.08456664 0.013987748
000010 81 10 b1 bd a1 1a 87 bc ff f7 a0 bc 87 a1 59 bc
       -0.08645726 -0.01649219 -0.019649504 -0.01328314
000020 a8 b4 a7 bd bb e0 ea 3d 86 78 ed 3c 75 14 b9 bc
       -0.08188754 0.11468645 0.028988134 -0.022592762
000030 bc 56 fd 3d da 06 0d 3e fe ed 47 bc a1 b6 a8 bd
       0.12370059 0.13772145 -0.012202738 -0.08237959
000040 07 0f fd bd ea ca 48 bd 34 b5 48 bd 84 17 ff 3c
       -0.12356382 -0.04902164 -0.049000934 0.031139143
000050 b6 82 a3 3d 24 9e d5 ba c9 66 ca 3d a1 08 0a 3e
       0.079839155 -0.001629774 0.09882886 0.13479854
000060 7e 22 94 3d 3c f2 e4 bc 51 b1 90 3d 35 7b e2 bd
       0.07233141 -0.027947538 0.070650704 -0.11058656
000070 86 ae c8 bd 35 23 1d 3d 42 da 76 3d 48 6d 8d 3d
       -0.09798913 0.038363654 0.06026674 0.06905609
000080 3c 2c c6 3d 57 bc eb 3d 2a e7 bf 3d 9b d8 43 be
       0.09676406 0.11510532 0.09370263 -0.19125597
000090 47 4d 42 be fb 7b b3 be c6 8f 87 3d 6c 8e b5 3d
       -0.18974791 -0.35055527 0.066192195 0.088650554
0000a0 fc 52 c3 bd d6 68 f0 3d 4c 81 52 3d 20 73 d0 bc
       -0.095373124 0.11738746 0.05139284 -0.02544552
0000b0 e8 50 d0 3d 15 7b 2e be 0c 61 b0 3c e7 65 85 3d
       0.10171682 -0.1703914 0.02153065 0.06513577
0000c0 c9 58 2f 3d 0d d9 c5 3d 39 5f eb 3d 7d 57 10 3e
       0.04280928 0.0966054 0.11492772 0.14095874
0000d0 06 30 2f 3d 4f 5c 0f be cb c2 de bb 34 27 c6 bd
       0.042770408 -0.14000057 -0.0067981235 -0.09675446
0000e0 50 8a 42 be f2 9d 36 3d 2d 0a d0 3d 3e d1 e1 3d
       -0.18998075 0.044584222 0.10158191 0.11026238
0000f0 07 72 c4 bc fd c6 25 bc ee 97 4a be 3e 8b a0 bc
       -0.023980154 -0.010118243 -0.19784519 -0.019597646
000100 6c d0 84 bd c9 a3 70 bb 21 e2 09 3e 65 36 ab 3d
       -0.06485066 -0.0036718717 0.13465168 0.08359984
000110 a8 47 3d 39 46 47 07 bd 85 e7 0d be 1f 43 03 bd
       0.00018051139 -0.033026956 -0.13857849 -0.032046434
000120 82 81 89 3d 0a 78 c7 3d e7 66 1d be 60 5e 19 3d
       0.06714155 0.097396925 -0.15371285 0.03744352
000130 c2 dc a9 3a 09 00 0b bd 70 04 c5 3d d5 76 1d bd
       0.0012959468 -0.03393558 0.09619987 -0.038443405
000140 22 1d e2 3b d9 6d e7 bd bd c4 28 3e 61 a5 19 3d
       0.0069004456 -0.11300249 0.164813 0.037511233
000150 0e 6d 7c bd fe 45 f2 3d 95 ef ad 3d 2e bf 43 bd
       -0.06162744 0.11829756 0.08492962 -0.047789745
000160 02 c5 a1 3d 12 29 55 3d 86 57 0d be 01 16 b6 3b
       0.078989044 0.05204112 -0.13802919 0.0055568223
000170 3e 76 6f be d2 21 76 3d bd 2c 09 bd bc dd e8 bc
       -0.2338495 0.060090847 -0.03348993 -0.028426044
000180 b7 d2 d4 bd 59 96 e7 3c fc 60 a9 3d b0 48 bd bd
       -0.10391753 0.028269934 0.082704514 -0.0924238
000190 a6 30 dd 3d 0c 75 06 bc 09 ca 8c 3d 3a dc 5b 3d
       0.108002946 -0.008206617 0.06874473 0.05367682
0001a0 eb 5f b8 3b 8e 91 5c 3e c3 92 00 3d 4a db 10 be
       0.0056266687 0.215399 0.031389963 -0.14146152
0001b0 c9 47 d5 3c 35 bb d0 bc cc 94 80 bd 42 bb 30 be
       0.026035206 -0.025479892 -0.06278381 -0.17258933
0001c0 9b 35 f5 bd 0e 4c 34 3d df 51 49 3d 4d 4f 94 bc
       -0.11973115 0.044017844 0.049150344 -0.01810422
0001d0 d0 5f 5b 3e 68 22 5d be 0b c5 7e be b4 bd 28 3c
       0.21423268 -0.21595156 -0.24879853 0.010299135
0001e0 42 a0 ac 3d 3a 0d 15 3e b1 d4 8a 3d 08 8c 51 3e
       0.08429004 0.14555827 0.06778849 0.20463574
0001f0 de 18 18 bc 89 22 da bd 9b d4 03 3e 46 29 72 bd
       -0.009283273 -0.10651118 0.12874071 -0.059121393
000200 f6 94 fb bd 74 c0 7c bc 7c 45 28 3e e5 e5 e7 bd
       -0.122842714 -0.015426744 0.16432756 -0.11323146
000210 02 ab 2a be b4 92 02 be c2 89 38 bc b5 c0 42 be
       -0.16666797 -0.12751275 -0.011263313 -0.19018824
000220 99 8d 22 bd 1d 05 db 3c cb e0 3e bd 20 e9 81 bd
       -0.03968582 0.026735837 -0.046601098 -0.06343293
000230 48 26 fb 3d 17 d2 56 bd ef 67 0a be 2f 29 2d 3d
       0.12263161 -0.05244645 -0.1351621 0.042275604
000240 67 64 5f be 66 9a 34 be 7f f3 35 3c e4 6f e6 3d
       -0.21815644 -0.17637023 0.011105417 0.1125181
000250 8a e3 20 3e 09 cf 6c 3c a5 74 02 3d 11 37 78 3d
       0.157118 0.014453658 0.031849522 0.06059939
000260 a3 a1 b3 3d b5 72 50 3d e2 f2 03 bd a4 a7 3a bb
       0.08771064 0.050890643 -0.032214053 -0.002848127
000270 5a 17 1f bd 94 82 c9 bc 66 62 d0 3c fe c7 05 3e
       -0.03884063 -0.024598397 0.025437545 0.13064572
000280 2d eb cc 3d b6 0f ba bd 5e 64 27 3d d3 d3 ab bd
       0.10005794 -0.09085028 0.040867202 -0.08390012
000290 57 2f fa 3d 5a e7 72 bd 45 bb 0d 3e f6 2d 09 3e
       0.122160606 -0.059302665 0.13840969 0.13396439
0002a0 45 41 28 bd 68 87 41 ba 13 ce cb bd c8 38 96 bd
       -0.04107787 -0.0007382543 -0.09951415 -0.07335049
0002b0 db eb 38 bd a5 d7 7b be 6a 64 77 bd 51 f9 e9 bc
       -0.045146804 -0.2459398 -0.060398497 -0.028561266
0002c0 51 c5 8f be 7c 1f 45 3d 1a d4 7e 3d aa b5 88 3d
       -0.28080228 0.04812573 0.062213995 0.06675275
0002d0 2d 3b 84 3d 7d a3 4b bd cc bd 4f be 6e 8e d8 3c
       0.064565994 -0.04971646 -0.20287246 0.026435103
0002e0 26 cd 37 be 0f 8d 3d 3c e6 3d f3 3c 12 43 c0 bd
       -0.17949352 0.0115692755 0.029692601 -0.09387793
0002f0 77 5a e0 bc 8d ec 2d be e0 a5 a8 3d e2 af 58 3c
       -0.027386887 -0.16984768 0.08234763 0.0132255275
000300 4a b1 a9 bd ef 1f c8 bd e7 48 32 3c a4 c4 82 be
       -0.08285768 -0.09771716 0.010881639 -0.2554065
000310 73 d5 5e bd 35 f7 87 bc ef 0a f1 bd 57 94 2f be
       -0.05440278 -0.01659737 -0.117696635 -0.17146431
000320 70 f5 99 bd 5c 86 f6 3d 41 a1 d6 3a 8b ef 61 be
       -0.075175166 0.12037346 0.0016374962 -0.22064035
000330 5e a6 94 3d b3 95 35 be 02 61 aa 3d 46 53 19 3e
       0.072582945 -0.17732887 0.08319284 0.14973173
000340 23 24 1c be ff 4c 20 be a2 3d 2f 3e 15 ec 4a 3e
       -0.1524816 -0.15654372 0.17113355 0.1981662
000350 f6 8c af 3e 3e a9 d8 3c 66 a2 4b be 9e 51 1b be
       0.34287232 0.026447888 -0.19886169 -0.15167853
000360 aa 6e ef 3d 98 c5 8b bd ad 9e 43 3a 95 99 f5 bd
       0.11691029 -0.068247974 0.0007462304 -0.11992184
000370 45 ab 99 bc 81 27 c8 bd 13 ad 18 3c cf d6 3f 3e
       -0.018758425 -0.0977316 0.009318608 0.18734287
000380 11 ec 2a be 6b f8 eb bd b5 85 4c 3e 99 d9 98 be
       -0.16691615 -0.11521991 0.1997288 -0.29853514
000390 03 b4 84 3e 32 fc f2 3d 76 6e 17 be 18 3d ac 3a
       0.25918588 0.11864509 -0.14788231 0.0013140766
0003a0 d4 6c 1b 3d 69 00 07 3e 11 09 96 bb 12 d8 5c bc
       0.037945583 0.1318375 -0.0045787175 -0.01347925
0003b0 80 a0 aa bd 20 70 56 bd d3 9b 38 be 22 31 0d 3d
       -0.08331394 -0.052353024 -0.18028192 0.034470685
0003c0 ea 90 df be 2d bd 9e 3e 31 d4 74 bb 92 51 bd 3d
       -0.43665248 0.31003705 -0.0037357921 0.09244074
0003d0 dc 57 3e 3e f3 35 e0 bd 23 09 74 bb ba 53 19 3e
       0.18588203 -0.1094779 -0.0037236891 0.14973345
0003e0 b7 24 35 be fa 08 0e be f4 21 5f 3e 16 5b 51 bd
       -0.17689787 -0.13870612 0.21790296 -0.051112257
0003f0 fd 8c 28 3e 8a bf 00 3e f0 84 41 3e 37 77 29 bd
       0.16460033 0.12573066 0.18898368 -0.041373458

lstm.bias_ih_l0 f4 [256]
000000 f5 81 e1 bc 8c 7f fb 3d b2 92 c7 3d 32 09 86 3e
       -0.027527789 0.12280187 0.09744777 0.2617889
000010 12 d8 07 3d b4 b5 cf 3d ad f3 0e 3e aa f8 bd 3d
       0.033165045 0.10142079 0.13960142 0.092759445
000020 77 0c 8b 3c 0f 85 02 3d 97 ac 2e be 09 34 86 3e
       0.016973717 0.031865176 -0.17058025 0.26211575
000030 bd a4 b4 3e f3 b6 c0 be 2e e6 f2 3d a6 c8 a3 3e
       0.35281935 -0.3763958 0.118603095 0.3198902
000040 fd 12 d5 bc eb b2 15 3e dd bc 31 3e 04 15 a3 3e
       -0.02601003 0.14619033 0.17357202 0.3185197
000050 2a 25 16 be 10 a6 f9 3d 93 28 8e be 44 e4 62 3e
       -0.14662614 0.12189877 -0.2776533 0.22157389
000060 02 62 1a 3e 76 4a 23 bb a9 10 01 3e 1b 06 bb 3e
       0.1507645 -0.0024916208 0.12604012 0.36528096
000070 cb cd b7 3e 51 9c 41 3e be 0a c8 3d de d0 37 3d
       0.35899195 0.18907286 0.09767674 0.044876926
000080 d5 5b 69 3e 90 17 75 3d ac e4 11 3e 3e 3f 39 3e
       0.22788937 0.059836924 0.14247388 0.18090531
000090 4b fb 54 3e ab e4 16 3e ea 6b b8 3e 43 a0 d0 3d
       0.20798986 0.14735667 0.36019832 0.101868175
0000a0 fd 15 dd bd 17 a3 db 3d cb 3c 05 3c 88 cf e7 bc
       -0.107952096 0.10724466 0.00813217 -0.0282972
0000b0 fd 58 35 3e bc 6b 4e 3e 51 23 32 3d 63 a6 d3 3d
       0.17709728 0.20158285 0.04349071 0.1033447
0000c0 00 6c ec bd 2a 49 f2 3e 37 5f 9c bc a9 59 0f 3e
       -0.11544037 0.47321445 -0.01908837 0.13999046
0000d0 1f 67 1f 3e b1 ab ad 3c 07 27 0c 3e 52 93 5f bd
       0.15566681 0.021200033 0.13686763 -0.054583855
0000e0 17 08 fd 3d e3 8e 76 be 43 2a 2a 3e 38 10 87 3e
       0.12355059 -0.24077944 0.16617684 0.2637956
0000f0 a3 c7 41 bd 3a 65 02 3e 3f ba 3d 3d d1 3a 1c be
       -0.04730953 0.12733927 0.046320196 -0.15256812
000100 15 ca 03 3e 3e 81 4d 3d a3 b0 2a 3d 01 74 8b 3c
       0.12870057 0.050172083 0.04167236 0.017023088
000110 6c 0a fb 3d 0b e6 cf bd b6 14 59 3e d6 c9 f8 ba
       0.12257847 -0.10151299 0.21199307 -0.001898105
000120 37 b4 28 3d 53 47 49 3d c5 54 e5 3d dd 86 58 be
       0.04118749 0.049140286 0.11197809 -0.21145196
000130 dd dc ca bc 9b 34 c0 3d 98 ca a6 bc ee 57 dc bd
       -0.024763519 0.09385034 -0.020360276 -0.10758959
000140 e7 ff 07 bc 7b 34 58 3d 21 a0 05 3e fe 20 dd 3d
       -0.008300758 0.052784424 0.13049366 0.107973084
000150 63 73 ec 3d bc aa a2 bd 2e b8 38 be 32 80 38 bd
       0.11545446 -0.07942721 -0.18039009 -0.04504413
000160 64 23 16 3d ef 95 a0 bd 43 7b 94 bd 59 30 a3 bd
       0.036654845 -0.078410976 -0.07250073 -0.07968206
000170 a0 6b 8b bd 4f ff 88 bc 89 66 b0 3d a7 5d d6 bd
       -0.06807637 -0.016723303 0.08613307 -0.104670815
000180 91 53 37 3d 8f 9a 0a 3d 68 9e 61 3e 44 d0 50 bc
       0.04475743 0.033838805 0.22033083 -0.012744967
000190 e9 b7 8b bd ec 78 1b be d2 eb db 3d 53 40 89 3d
       -0.068221875 -0.15182847 0.107383385 0.06701722
0001a0 4f 5f f7 bc d5 48 3a bd 6e 0b 01 3e c9 61 01 bc
       -0.030196814 -0.045479614 0.12602016 -0.007896849
0001b0 60 8c a6 bd 65 d3 34 3e 55 37 fa bd fd 5a b6 3d
       -0.08132243 0.17658766 -0.12217585 0.089040734
0001c0 8c 8e 9e bd 83 26 d4 bc 24 13 32 bd dc a8 73 bd
       -0.077420324 -0.02589727 -0.043475285 -0.05948721
0001d0 5a 7d 5f 3e c3 09 95 3d 87 c1 39 be 6e 7a 6a 3d
       0.21825162 0.072772525 -0.18140231 0.057245664
0001e0 9d 86 57 3d b8 ef 83 bb a9 ae 16 3e 77 cc a2 bb
       0.05261861 -0.0040263794 0.14715065 -0.0049682218
0001f0 33 37 b3 3d 8c ec 25 bd 0e 42 b7 bd 86 af 5c 3d
       0.08750763 -0.04050879 -0.08948146 0.05387833
000200 d7 96 c1 bd 66 c8 56 be 24 16 e7 3c 12 bb 35 3e
       -0.094525985 -0.20974883 0.0282088 0.17747143
000210 8f a7 a5 be 54 8d 84 3d 5a f8 0e be e2 26 82 3c
       -0.323544 0.06472269 -0.13961926 0.015887681
000220 22 43 23 3d 33 02 0a bd 3b e3 61 3d 62 65 11 3e
       0.039858945 -0.033693504 0.055148344 0.1419883
000230 a0 05 75 3e 31 ae de 3d 93 f0 24 bd 91 62 9c bd
       0.23927927 0.10873068 -0.040268492 -0.076359876
000240 da 80 25 be b7 1f a4 be af 8d 7a 3e be ee 75 3e
       -0.16162434 -0.32055447 0.2446811 0.24016854
000250 b2 ec 25 bb 35 e5 0c 3e 38 da db 38 ae 7b a7 3b
       -0.0025318083 0.1375931 0.0001048338 0.0051111793
000260 ad b3 92 3e d2 46 ad bd 08 ea 50 be f1 1e 85 bd
       0.28652707 -0.084607735 -0.20401776 -0.06500042
000270 66 36 2f bd a9 a7 19 be 6c cd ab 3c 21 ed a9 3b
       -0.042776488 -0.15005364 0.020971976 0.0051857387
000280 ec e8 6f 3d a7 5c 6d bd 5f eb b5 3d 7b 39 24 3e
       0.05857174 -0.05794969 0.08882784 0.16037552
000290 9e b6 01 be f0 df f5 bd 8c 63 5e 3e be 80 cc 3e
       -0.12667319 -0.12005603 0.21717662 0.39941972
0002a0 6b c7 82 3d 5a 88 cf bc 46 8d ce bd 53 9a 4e 3d
       0.06385692 -0.025333572 -0.100855395 0.050440144
0002b0 71 5f 39 3b 2c fa 1a bd 06 2f 37 be 07 8c 36 bd
       0.0028285647 -0.03783624 -0.17889032 -0.044567134
0002c0 f0 88 1f bd 0a b9 46 bc 14 f3 2d bd a5 2b b5 3d
       -0.038948953 -0.012129078 -0.042468145 0.08846215
0002d0 7d 51 7f 3c 1d 89 38 bd 03 cc 53 3d 76 02 27 bd
       0.015583393 -0.045052636 0.051708233 -0.04077383
0002e0 75 48 82 3d 7f 93 aa 3d 66 19 bf 3e 9d 19 5a be
       0.06361476 0.08328914 0.37324065 -0.21298833
0002f0 69 f8 67 3d 55 7a 0e 3e f8 89 1b 3e b1 11 c1 3d
       0.056633387 0.13913853 0.1518935 0.094272025
000300 88 cf 39 3e 5d b7 fe 3d df 5d a6 bd 2c de 86 3e
       0.18145573 0.124373175 -0.08123373 0.2634138
000310 29 97 48 3e d3 78 e5 3c 90 f9 7a 3c f8 a6 57 bc
       0.19588913 0.028011715 0.015318289 -0.013162367
000320 60 7a 8a bd 3a ad 8c 3e 73 c0 66 3d 3d 1c 8b 3e
       -0.067616224 0.2747591 0.056335878 0.27169982
000330 36 96 cc 3d 54 8c 3b bd de 56 42 3e 53 b7 5c 3e
       0.09989588 -0.045788124 0.1897845 0.21554308
000340 9b c2 51 3e dc d8 07 3e 38 81 b8 3d d9 41 7f 3d
       0.20484392 0.13266319 0.090090215 0.062318657
000350 7c 3d 8c 3d f5 6f 05 3e 5f 80 33 bd 48 fa b8 3e
       0.06847665 0.1303099 -0.043823596 0.3612845
000360 f8 09 8d 3e 2e 92 b4 bc 34 4e 0b 3e 66 e7 47 3e
       0.27546668 -0.02204236 0.13604051 0.19521865
000370 94 a8 3c 3e 70 01 0d 3d 4e e6 e3 3c 1d 4a b1 bd
       0.18423682 0.0344252 0.027819779 -0.08656714
000380 8f 1a cd 3d 2f 03 e7 3d 6b e2 98 3d 43 fd 6c 3e
       0.10014831 0.11279904 0.07465061 0.23143487
000390 34 dd 34 3d ef e8 4c bd 07 bb ed 3e a3 ba 2d 3a
       0.04415627 -0.05002683 0.46431753 0.00066272373
0003a0 b5 4c e2 bc 3d 75 55 3e 76 16 32 3e 6a 06 d9 3d
       -0.027624467 0.20845504 0.1739138 0.105969265
0003b0 40 95 0e 3e b3 90 e8 3c e9 87 3b 3c be 88 af 3c
       0.13924122 0.02838931 0.011445978 0.021427508
0003c0 30 e4 00 bd 8a b6 1e 3e 69 5c b1 bd 8a 7b 43 3e
       -0.031467617 0.1549932 -0.08660204 0.19090095
0003d0 3b 0e 04 3d d5 87 2c 3e 37 c3 10 3e 13 50 c2 3d
       0.032240134 0.16848691 0.14136969 0.09487929
0003e0 1f 51 45 3e 99 ae 24 be c4 82 2f 3e 7c 16 f1 3d
       0.19269226 -0.16082229 0.17139727 0.11771867
0003f0 bb b9 ed 3d 76 c0 d0 3d 38 3d 0d 3e 6a 54 e7 3d
       0.11607691 0.10192959 0.13792884 0.112953976

lstm.bias_hh_l0 f4 [256]
000000 c0 3a e4 3d 17 10 0a bc c7 0b b8 3d d8 a8 0e 3e
       0.11144018 -0.008426688 0.08986621 0.13931596
000010 dc 5f 40 3e 41 dd 8b 3e 40 e4 88 bd 38 aa b0 bd
       0.18786567 0.2731724 -0.0668416 -0.08626217
000020 6c 93 df 3d c1 46 3c 3e f9 18 2d be b1 76 45 3e
       0.1091679 0.18386365 -0.16904058 0.19283558
000030 68 20 ac 3e 05 73 35 be 32 e8 5c 3e 4e e2 89 3e
       0.33618474 -0.17719658 0.2157295 0.2693047
000040 90 d0 64 bd 18 b4 30 bd 92 85 83 3e 68 fe a8 3e
       -0.055862963 -0.0431405 0.25687844 0.33006597
000050 1d 09 dc bd 4b 57 a1 3d de ba 50 be d0 c0 94 3e
       -0.10743926 0.07877978 -0.20383784 0.29053354
000060 98 a6 ca 3d 0f 34 1a 3c 78 10 44 3e 2f 63 d0 3e
       0.098950565 0.009411826 0.19146907 0.4070067
000070 9f 4f ca 3e 51 c0 62 3c 4f 95 1b bd 3c a8 81 bd
       0.3951387 0.013839797 -0.03798419 -0.06330916
000080 c2 b1 91 3e 09 a5 62 3e ee a4 ae bd 10 0d 05 3d
       0.2845593 0.22133268 -0.085275516 0.03248316
000090 46 3e cb 3c 72 3e 07 3e 41 28 9e 3e f2 65 41 3e
       0.024809968 0.13207415 0.30890086 0.18886545
0000a0 90 b5 36 bd b8 4d 71 3d 54 00 a0 bc 92 6a cd 3d
       -0.044606745 0.05891201 -0.019531406 0.10030092
0000b0 b0 fd 87 3e bf 49 09 3e 2c a1 8b 3d 0a ad ae bd
       0.26560736 0.13407038 0.068178505 -0.08529098
0000c0 99 3a 31 3c 1b 61 ab 3e 1e 2b a0 bd 61 e4 b1 3d
       0.010817193 0.33472523 -0.07820724 0.08686138
0000d0 e0 10 60 3c 11 97 1c 3e dc 8c c2 3d 67 09 bf 3d
       0.013675898 0.15292002 0.09499523 0.09327965
0000e0 61 0e 40 3d 5d fe 7f be 58 cd 55 3e a1 3f a8 3d
       0.046888713 -0.24999376 0.20879114 0.08215261
0000f0 f5 97 9e bc 9a 6a d4 3d 11 bd 6d 3d 39 22 a6 bd
       -0.019359568 0.10371895 0.058041636 -0.08111996
000100 e6 6b 85 3d d0 20 b4 bd 70 09 cc bc e6 b4 1a 3e
       0.065147206 -0.08795321 -0.024906844 0.1510807
000110 ba 9a b1 3c 4d 30 db bc 32 42 52 3e 7f 50 9a bd
       0.021680225 -0.02675643 0.20533064 -0.07534885
000120 48 5d a1 bd 05 7e e8 3c e8 11 6e 3c 5a 4b e5 bd
       -0.0787912 0.028380403 0.014530636 -0.11196013
000130 7f d3 d6 3d 6f e8 1d bd 24 96 d5 bd 69 40 2c be
       0.104895584 -0.038551744 -0.10429028 -0.16821446
000140 02 7f 60 3d ef f0 36 bd cd 50 e9 3d 49 4a e8 bc
       0.054808624 -0.044663366 0.11392365 -0.028355734
000150 c4 a7 fb bc 81 e8 04 bd b7 a1 21 be d6 46 0e 3e
       -0.030719645 -0.032448296 -0.15784346 0.1389421
000160 23 e4 41 3d 4f 6b 5f bd e5 47 35 be 80 7a c6 bd
       0.04733671 -0.054545697 -0.17703207 -0.09691334
000170 fd d0 19 be b8 e1 26 3e 75 82 73 bd 6a d9 a7 3d
       -0.15021129 0.16297042 -0.059450585 0.08195765
000180 5a 73 62 bd 66 01 f2 bc d6 21 65 3e 6b 19 c1 3c
       -0.05528579 -0.029541682 0.22376189 0.02357169
000190 55 86 e0 bc 8f 0f 16 ba 88 e3 81 3d d1 86 fa 3d
       -0.027407805 -0.00057243643 0.06342226 0.122327454
0001a0 70 a7 80 bd 3a de a7 3d bf cb 39 bd 4e d9 96 3c
       -0.06281936 0.08196683 -0.045360323 0.018414166
0001b0 d6 72 83 bd 39 9a 50 3e 20 d6 d0 bd 98 53 88 3d
       -0.064183876 0.20371331 -0.10197091 0.06656569
0001c0 7c 97 c9 3d 3c 49 2a be b4 d9 30 3e 02 cc 95 bd
       0.098433465 -0.16629499 0.17270547 -0.07314302
0001d0 b8 d4 b0 3d d3 34 bc 3d 17 72 5f be 41 dc 29 bd
       0.08634323 0.09189763 -0.21820866 -0.041469816
0001e0 77 c5 7c bd 64 a9 99 bc 16 dd b2 3d d2 51 61 bc
       -0.061711755 -0.01875753 0.08733575 -0.013752418
0001f0 f1 38 be 3c 67 f3 86 3d 89 e9 76 bd 82 78 f2 3d
       0.023220511 0.06589394 -0.06028131 0.11839391
000200 fb cd 82 bd b2 39 ca bd 8c fd 28 bd ae 65 a1 3d
       -0.06386944 -0.09874286 -0.041257426 0.07880722
000210 8d 0a a4 be 51 79 b7 3b 8d 2e fb bd e8 41 c5 3d
       -0.320393 0.005599179 -0.12264738 0.09631711
000220 44 dd 45 bc ee c6 64 be d6 09 ee 3c df d1 25 3e
       -0.01207668 -0.2234151 0.029057425 0.1619334
000230 51 dd 8c 3e f7 11 06 3e a7 dc b7 bd 2e d7 e3 3c
       0.275126 0.1309279 -0.08977633 0.027812567
000240 df 66 bd bd 13 ee ab be cb c6 6c 3e d3 e1 88 3e
       -0.09248137 -0.33580074 0.23122708 0.2673479
000250 02 58 91 bd d7 4c 36 3e b6 6c 52 bd 38 55 53 3e
       -0.07096864 0.1780275 -0.051373206 0.20637977
000260 32 3b b0 3e b1 2c 4c 3d 2f 3e 0a 3b 48 d4 93 3d
       0.34420162 0.04984731 0.0021094193 0.07218224
000270 1b fd b8 bd 50 db 63 be 7a 07 0b 3e 2e 4d 07 be
       -0.09032651 -0.2225163 0.13577071 -0.13213035
000280 ef 9e 35 3d e0 83 06 3e c2 67 02 3d c4 50 db 3d
       0.044341024 0.13136244 0.031837232 0.10708764
000290 b7 d7 74 3d 5b 63 b0 bd c7 f5 6d 3e f0 4b 80 3e
       0.059776034 -0.086127006 0.23238288 0.25057936
0002a0 2f 2f 14 3c f9 35 4e be e6 58 41 3d 84 60 16 bb
       0.009044453 -0.20137776 0.04720392 -0.0022945711
0002b0 71 ab e7 3d f8 dc 13 be fe 10 d8 3b 3b 90 38 be
       0.11311997 -0.14439762 0.0065938225 -0.1802377
0002c0 27 11 0c be 6b f7 cb bd 31 30 82 3d e3 92 dc 3d
       -0.13678418 -0.099593006 0.06356848 0.10770204
0002d0 3c 84 42 3e 04 c1 2b 3e e7 23 c9 bc 6b c5 ff bb
       0.18995756 0.16772848 -0.024553252 -0.0078055165
0002e0 f8 4b a4 bc a1 63 71 bc c1 1e a1 3e b3 e4 6b be
       -0.020055756 -0.014733226 0.31468776 -0.2303646
0002f0 7b 98 2b 3e c4 be 3b 3e 8d 1b da 3b 5e 0f 75 3d
       0.16757385 0.1833449 0.0066561163 0.05982911
000300 fe 5f b6 bc dd 11 19 3e e2 3c ef bd 6f 7c 83 3e
       -0.02226257 0.1494822 -0.11681534 0.25680873
000310 4e d6 49 3e 2a ac 40 3d 47 36 cd bd 0d 80 d1 3d
       0.19710657 0.04703919 -0.10020118 0.10229502
000320 1d 1a 12 bd 4a 96 9c 3e 61 3a 1c 3e 69 aa 84 3d
       -0.035669435 0.3058341 0.15256645 0.06477816
000330 e1 92 43 3e 0b cd 8f be 93 ff b7 3d 5a 31 30 3d
       0.19098999 -0.28086123 0.08984294 0.043015815
000340 4b 55 49 3c d6 fa 20 3e 7d 62 a8 3d 72 28 fc bc
       0.012288402 0.15720686 0.0822191 -0.030781005
000350 4e 09 e1 3d 84 8d bd 3c 60 1e f9 ba bd ca 9d 3e
       0.10988103 0.023138769 -0.0019006245 0.3081874
000360 09 f8 6d 3e 10 d8 09 be 05 0d 1d 3e 94 28 30 3e
       0.23239149 -0.13461328 0.15336998 0.1720298
000370 b6 88 45 3e 8c 78 f1 3d 9a 7b 1a bd 88 52 78 3d
       0.19290432 0.117905706 -0.037715532 0.060625583
000380 17 9e 68 3e fb 0a 1c 3e a1 89 e0 3c 71 0e d4 3d
       0.22716556 0.15238564 0.027409377 0.10354317
000390 94 4e 65 3e 9d d1 8e bb 1e 60 ab 3e df cc 0c 3e
       0.22393256 -0.004358484 0.3347177 0.13750027
0003a0 a4 76 17 be 44 4a 24 3e 46 e3 bc 3d 79 bf c7 3c
       -0.14791352 0.16043955 0.092230365 0.024383293
0003b0 ae f4 df 3d 96 90 1d 3d 4e 19 b5 bc e2 68 36 3e
       0.10935341 0.038467966 -0.022106793 0.17813447
0003c0 f7 23 eb 3d 03 d3 9f 3e 77 75 ff bc a3 c8 18 3e
       0.11481469 0.31215677 -0.031183941 0.14920287
0003d0 68 a3 23 3e c7 f4 04 3e 83 ec 56 3d fd 70 d9 3d
       0.15980303 0.12984 0.05247165 0.10617254
0003e0 7b 83 2c 3c 68 06 a0 bc 25 7a c2 bb c3 fc a1 3e
       0.010529394 -0.019534305 -0.005934971 0.31638154
0003f0 2d 99 95 3d 9c cc 7f 3e 3a d7 bf 3d 14 d3 29 3d
       0.073046066 0.24980396 0.09367223 0.041461065

lstm.weight_ih_l1 f4 [256, 64]
000000 37 9f 82 be 79 e2 08 bb 0b c5 dc 3d 4b e0 7f bd
       -0.25512096 -0.0020886941 0.107797705 -0.06246976
000010 09 f8 f9 be 61 fb 09 3d 30 08 ef 3b 44 2a 51 be
       -0.48822048 0.033687 0.007294677 -0.2042628
000020 d5 58 00 3e a8 c0 c4 3b 7a 85 42 be d4 f0 80 be
       0.12533887 0.0060044117 -0.1899623 -0.25183737
000030 29 5e 5a 3e 08 e3 c5 3d c1 5e c8 3d c4 38 79 3d
       0.21324982 0.096624434 0.09783698 0.06084515
000040 74 59 15 bf f3 d5 33 be 07 5e a4 3d 95 97 8e 3e
       -0.5833962 -0.17562084 0.08025747 0.27850023
000050 6e ca 68 3e 66 b0 16 3d fd 63 ae 3d 0b f0 c3 bd
       0.22733471 0.03678932 0.08515165 -0.09567269
000060 43 67 94 3e 3e 83 23 3d ac c6 06 3c 04 f0 71 be
       0.28985032 0.039920084 0.008226078 -0.23626715
000070 5d 71 23 be 5a d2 e0 bd cb ff dc 3d 8a 8a 19 3e
       -0.15961213 -0.109776214 0.10790976 0.14994255
000080 0c ec 3c 3d 6d 71 e3 3c 83 74 89 3d 4d ee 82 be
       0.04612355 0.027764047 0.06711676 -0.25572434
000090 ca 53 0c 3f 02 77 0f be 59 4f 41 3e 79 e4 43 3e
       0.5481535 -0.14010242 0.18877925 0.19130124
0000a0 ee 4b 27 be fc c4 43 3e 38 ab bd bc 57 9f 2f be
       -0.16337559 0.19118112 -0.023152933 -0.17150627
0000b0 5c 8e 08 be f5 87 ca be 9d 2b 9a be e4 cd c1 bd
       -0.13335556 -0.39556852 -0.301114 -0.09463099
0000c0 ae b3 b3 bd e2 03 74 3e 22 06 13 3e 95 56 94 3c
       -0.087745056 0.23829606 0.14357808 0.018107692
0000d0 37 03 8d 3e e5 17 e9 be b6 61 ce bd d2 db 89 3d
       0.27541515 -0.45526043 -0.10077231 0.067313805
0000e0 c2 ab f2 bd 8b 1f fa 3d d8 77 63 3e a4 05 58 3d
       -0.118491665 0.122130476 0.22213686 0.052739754
0000f0 83 4e 33 3e a0 97 13 be 16 e0 ac 3d ab 11 06 3e
       0.17510419 -0.14413309 0.084411785 0.13092677
000100 cc 05 92 be e6 24 5e be bc 18 5c 3c c1 8f 75 bd
       -0.28520048 -0.21693763 0.0134336315 -0.059951548
000110 af 7d 2d be fb a9 39 3d a3 ef 43 be e1 56 89 be
       -0.16942476 0.04532812 -0.19134383 -0.26824096
000120 72 f0 7d bd 63 ae 0b 3c 43 a1 08 be 53 35 2a be
       -0.061996885 0.008525464 -0.13342766 -0.16621904
000130 a8 7f 90 3e 45 a1 2a 3d 2b e2 8d bd de 5b cd 3c
       0.28222394 0.041657705 -0.06927904 0.02506822
000140 78 1e b8 be 0d 69 31 bd 72 98 28 3e 96 94 96 3e
       -0.35960746 -0.043313075 0.16464403 0.29410237
000150 f0 ab 87 3e e9 3e 0b bc 58 be 6c 3d 6d 1c 0c 3c
       0.26498365 -0.008498886 0.057798713 0.008551699
000160 51 d4 8d 3e 91 3b ca bd 89 51 a9 3d 44 bb 4e be
       0.27701047 -0.09874643 0.08267505 -0.20188624
000170 6c 83 ce bd 25 23 f0 bc d8 9b 34 be d6 1b 4d 3c
       -0.100836605 -0.029313633 -0.17637575 0.012518844
000180 0f 64 64 be 46 98 cc be 37 b8 73 3e 9b ff 08 be
       -0.22303794 -0.39959925 0.23800741 -0.13378756
000190 3f f1 3a 3d 66 f6 ae bc 3f ce c1 bd 96 04 f8 3d
       0.045640226 -0.021357726 -0.094631664 0.1211025
0001a0 cc 83 9e 3c 1a cf 96 3e 68 61 9e 3c da 01 49 bd
       0.019349955 0.2945488 0.019333556 -0.04907403
0001b0 0f ee b8 bd 42 4a 1f be 74 13 07 be f3 8e db bd
       -0.09029781 -0.15555671 -0.13191015 -0.10720625
0001c0 46 6b db bd 54 57 fa 3c 40 01 98 3d 8a 5c a7 bd
       -0.1071382 0.03055922 0.074221134 -0.08171947
0001d0 23 de 4f 3e d8 60 11 be 01 1f 11 be 6b 12 20 bb
       0.20299582 -0.14197099 -0.14171983 -0.002442504
0001e0 75 87 2f be 4a ad 93 bc 13 2b 85 3e 5a 39 da 3d
       -0.17141517 -0.018026967 0.26009426 0.1065547
0001f0 6b 3d 1b 3e ba b3 0a be e4 b1 59 bc 7b 25 20 3e
       0.15160148 -0.13545123 -0.013287041 0.15639298
000200 c1 1d e3 3d 27 d3 87 bc b5 c3 ac bd 37 9a 8b bd
       0.110896595 -0.016580177 -0.08435766 -0.068165235
000210 2b 82 9b 3d 2c 7e 90 3d 0a aa 7d 3b 26 09 4a bd
       0.07593187 0.070553154 0.0038706088 -0.04932513
000220 c5 77 db bd 92 ca c0 bd 4b b3 ac bd ae 2f 51 bd
       -0.107162036 -0.09413637 -0.08432635 -0.05107086
000230 b1 2b c3 3d a4 80 66 bd 64 e8 34 bc 63 b1 d1 bd
       0.09529818 -0.056275025 -0.011041734 -0.10238912
000240 b3 55 ab 3d 22 9d 5a 3a e5 95 58 3c 23 1c be 3d
       0.08365955 0.00083394547 0.013219331 0.092827104
000250 92 c8 53 3d d6 24 3b be e9 2e 7d 3d 8a 59 6e bd
       0.05170495 -0.1827577 0.061812315 -0.05819086
000260 e1 37 7e 3c 9e 33 2a 3e 3c 36 49 3e bb 99 3d bd
       0.015516252 0.16621253 0.19649595 -0.046289187
000270 be e3 19 3d fc 9f d6 bd bf 3a af bd df 1c 35 bd
       0.037570707 -0.10479733 -0.08556127 -0.044216987
000280 e9 c9 23 bc 9f f2 ea bd 4b 49 06 3e 9f 52 dd 3c
       -0.00999687 -0.114720576 0.13113897 0.027016936
000290 a5 f2 f4 bd 47 84 90 3e 6e 28 75 be 32 5b 1b 3d
       -0.11960343 0.2822592 -0.23941204 0.037928768
0002a0 57 e5 d2 bc fa 5d 02 3e 18 3a 49 3d d9 2b bc bd
       -0.025744123 0.12731162 0.04912767 -0.09188051
0002b0 7d 1b 21 bc cf de 72 bd be 59 d7 3d b2 f2 cb 3d
       -0.009833214 -0.059294518 0.10515164 0.099584
0002c0 c2 94 c3 bd ae f9 25 3d e7 26 ac bc 3c 1e 3e be
       -0.09549858 0.040521316 -0.021014644 -0.18566221
0002d0 88 75 61 bc ec 6a 96 bd 4b 29 01 be 7a 67 ee bc
       -0.013760932 -0.073446125 -0.12613408 -0.029102076
0002e0 b8 ae 00 be ca 72 34 3d 30 37 d5 bd d3 22 55 3d
       -0.1256665 0.044054784 -0.10410917 0.052035164
0002f0 3a 99 02 3d 56 a9 68 be 1f 16 0e be 52 af 27 3d
       0.03188441 -0.22720847 -0.13875626 0.040938683
000300 98 ce a6 3d fe 4c e3 3d a4 e7 0b 3e a2 11 6f 3e
       0.081448734 0.110986695 0.13662583 0.2334657
000310 08 aa 57 3e 75 03 1f 3e b2 5e 5d be f7 07 67 3d
       0.21060956 0.15528663 -0.21618155 0.05640408
000320 95 84 fc bc f9 53 85 3c 28 33 9d 3c 68 79 68 3e
       -0.030824939 0.016275393 0.019189432 0.22702563
000330 f0 f2 96 bd 6c 93 12 bd 2b a0 dd 3d 7a af 2f be
       -0.073705554 -0.035785124 0.10821565 -0.17156783
000340 9e 0a ee 3c 39 c8 6b 3c 09 53 c7 3d 0d 6c 85 3d
       0.029057797 0.0143909985 0.097326346 0.0651475
000350 90 ad 6d 3d d1 82 0b bc e3 3c 0d bd 77 c2 c9 bd
       0.05802685 -0.008515076 -0.034481894 -0.09851544
000360 1f 39 00 3d 69 ad 45 3c 29 5c 18 bc 58 bf a5 3d
       0.031304475 0.01206527 -0.009299316 0.080931365
000370 88 c2 61 bc 10 c1 fb ba 38 6e 38 bb f4 cb 0c 3e
       -0.01377929 -0.0019207317 -0.0028141867 0.13749677
000380 cf d7 0a 3e 4b 5f 83 3d 49 24 23 3e 70 ee 16 3d
       0.13558887 0.0641466 0.1593181 0.036848485
000390 e1 fb 36 3e 4b 3a d8 3d 04 f5 5f 3e ae d0 e2 bc
       0.17869522 0.105579935 0.2187081 -0.027687397
0003a0 45 ff 6f bd c1 35 79 be ad 12 fe 3d 62 bc c5 3a
       -0.058593053 -0.24336912 0.12405906 0.001508605
0003b0 98 e3 43 3d 30 3d 0f be 9c 4a 98 bd f5 58 b2 bd
       0.047824472 -0.13988185 -0.074361056 -0.087083735
0003c0 ce d6 96 be 08 d3 04 be ed b2 bb bd e1 d6 db 3d
       -0.29460758 -0.12971127 -0.09164987 0.10734344
0003d0 12 da 84 3e 6c 84 32 3e 2d 1c a2 bd 22 62 bf bc
       0.25947624 0.17433327 -0.0791553 -0.023362223
0003e0 73 ca 77 3e d6 04 a9 bd 04 b2 f9 3d 5d e8 6a be
       0.24198322 -0.082528755 0.12192157 -0.22940202
0003f0 8e b3 29 bd a9 d4 d7 3d 2e 9b dc 3d 0c 5e 4d 3c
       -0.041431002 0.105386086 0.10771786 0.01253463

lstm.weight_hh_l1 f4 [256, 64]
000000 98 99 5f 3c a0 f2 19 3d 45 82 16 be e1 67 01 be
       0.013647459 0.0375849 -0.14698131 -0.12637283
000010 2c 06 a6 bd dd 85 f0 3d 3f f3 a1 3d ca 83 32 3e
       -0.08106646 0.117442824 0.07907724 0.17433086
000020 b0 26 c0 bd ca 63 ed bc fa bb dc 3d 3b ec 03 3e
       -0.09382379 -0.028978247 0.10778041 0.12883084
000030 3a 30 d1 3d 35 bb 98 bb b8 12 27 be f1 2d 5a be
       0.102142766 -0.0046609887 -0.16315734 -0.21306588
000040 e1 36 3f 3e 37 f1 dc 3d 43 90 4f 3b 81 14 d7 be
       0.18673278 0.107881956 0.003167168 -0.4200783
000050 2a dc 0f be d1 5e 3e be ce da 3e be bd 01 7f bd
       -0.1404883 -0.18590857 -0.18638155 -0.062257517
000060 b4 11 49 be d9 f3 d7 3c bd 06 d2 bd 34 ae b6 3d
       -0.1963566 0.026361393 -0.102551915 0.08919945
000070 b8 33 32 3e d7 74 8a bd 47 8e 93 be a8 b1 98 bd
       0.17402542 -0.06760567 -0.28819486 -0.0745576
000080 eb c2 d4 bb 85 67 2b 3e 13 8a 32 be 7f c2 aa 3e
       -0.0064929626 0.16738708 -0.17435484 0.33351514
000090 df 21 3c be 88 d0 ef bd 9f 74 41 3d 16 94 ff bd
       -0.18372296 -0.11709696 0.04723036 -0.12479417
0000a0 1e 33 81 3d eb da bd 3d 8f 0b a2 bd f2 fc b3 3c
       0.06308578 0.09270271 -0.07912361 0.0219712
0000b0 fb e5 08 be 7c c0 dc bd 23 54 63 3e e3 6b 35 bd
       -0.1336898 -0.10778901 0.22200064 -0.044292342
0000c0 fb 35 29 be 3a 55 52 3e f2 9a 9d bc e8 26 ba 3b
       -0.16524498 0.20540324 -0.019238923 0.0056809075
0000d0 41 46 95 3b 2c 54 c9 bd 00 5d d9 bd ac 8d c2 bd
       0.004555494 -0.09830508 -0.106134415 -0.09499678
0000e0 b5 ae f2 bd 3a d4 df bd f7 74 52 be b5 e8 98 bd
       -0.11849729 -0.10929151 -0.20552431 -0.0746626
0000f0 50 80 87 bc e0 cb 08 be f0 92 5a 3c 14 f7 1c be
       -0.016540676 -0.13359022 0.013340697 -0.15328628
000100 7e 2e 0a 3e 91 2b 28 3d 0e b9 03 be ea 34 3d bd
       0.13494298 0.041057173 -0.12863562 -0.04619304
000110 92 b1 70 bd 59 2f ef 3d a4 28 fd 3d 23 a1 2d 3c
       -0.058763094 0.11678953 0.12361267 0.0105975
000120 4a 78 4a be 0a 65 a6 bc 76 f8 b2 3d 98 8e 9a 3c
       -0.19772449 -0.020311851 0.087387964 0.018866822
000130 0e 5b 42 3e 7c 03 5a 3e a9 95 16 be 54 32 8d 3d
       0.18980047 0.21290392 -0.14705528 0.06894365
000140 d1 75 34 3c ba 6e 59 bd a0 9d 1f be 3c ca ef 3c
       0.011014418 -0.053084113 -0.15587473 0.029271238
000150 69 92 35 be 9d 25 0a be 74 55 7f 3c 70 de 23 3d
       -0.17731632 -0.13490911 0.015584338 0.040007055
000160 8d 71 f0 bd 5b e9 28 be bd 6e fe bd 29 c0 19 3e
       -0.11740408 -0.16495268 -0.124234654 0.1501471
000170 0d 64 45 3e 45 b6 b3 be 9d 37 01 3e bd 44 7c bd
       0.19276448 -0.35099998 0.12618871 -0.06158899
000180 f1 1c 0b 3e bd af fe 3d 82 b9 0e be 50 64 2a 3e
       0.13585259 0.12435863 -0.13937953 0.16639829
000190 28 c5 63 be 93 29 9e bd c0 f9 a9 3d fb 53 81 3c
       -0.22243178 -0.077227734 0.08299589 0.015787115
0001a0 b9 75 78 3d fc 52 18 3e 88 dd 09 bd e6 fd 05 3e
       0.060659144 0.14875406 -0.033658534 0.13085136
0001b0 5b c4 62 bd c9 1e 90 bd 86 57 fa 3d f9 86 4d bd
       -0.05536304 -0.07037122 0.12223725 -0.050177548
0001c0 d3 86 30 bd 8b 24 47 3e a6 f0 d9 3c e1 28 ad 3d
       -0.04309733 0.19447534 0.026604008 0.08455063
0001d0 27 ec e2 3d c9 55 bc 3d 02 0e ce bd d4 2b 8f bd
       0.11080199 0.0919605 -0.100612655 -0.069907814
0001e0 2c f6 02 3e df 9d c2 bd 1b ab 53 be 19 2d 52 bd
       0.1278922 -0.09502768 -0.2067074 -0.05131254
0001f0 29 60 93 3e f8 fb 44 3d 0e 49 28 3e 46 11 cd be
       0.28784302 0.04809186 0.16434118 -0.4005224
000200 83 91 c8 bd 82 fa 3b 3e 85 f1 cc 3d e4 f8 0a 3e
       -0.09793379 0.1835728 0.10007004 0.13571507
000210 f4 da 7f bc 51 bd b6 bc 69 26 2d bd 1e bd 69 bd
       -0.015616167 -0.02230707 -0.04227296 -0.05706512
000220 1e 13 ea bd 68 ec cf bc 04 78 b9 bd 92 ff 4e 3e
       -0.114294276 -0.025381282 -0.09056094 0.2021468
000230 b5 bd a2 bd 7e 70 e8 bd 54 f6 c4 3d c0 f1 be 3d
       -0.0794634 -0.11349581 0.09617296 0.09323454
000240 37 2e 69 3e 17 25 0d 3e 07 9a 55 3d c8 45 a5 bd
       0.22771536 0.1378368 0.052148845 -0.0806995
000250 23 dd 83 3e c9 2c 84 bd ac 1b 34 3e d2 f9 9c 3d
       0.2575465 -0.064538546 0.17588681 0.07664837
000260 4f 54 45 bd d5 25 fe bb bc 8a 9d 3d 7a ed 13 3e
       -0.048176106 -0.007755975 0.07692477 0.14446059
000270 03 10 00 bd 02 b9 e0 bd e7 8a 16 3e 70 79 10 bc
       -0.03126527 -0.109727874 0.14701425 -0.008818015
000280 d4 ca 2e 3e 2c 9a be 3a d4 48 3f be c3 37 a8 3c
       0.1706956 0.0014541796 -0.18680125 0.020534402
000290 e7 41 1b be 43 2f 1d be 13 87 2c 3c 95 35 9c 3d
       -0.15161858 -0.1535006 0.010530251 0.076274075
0002a0 3f 2b 3e 3e e3 69 83 bd 33 2a 22 be a2 eb 13 3d
       0.18571185 -0.06416681 -0.1583641 0.03611339
0002b0 c1 58 52 bd 5c 56 36 3d 45 54 ce 3d bb e1 69 3d
       -0.051354174 0.044515952 0.10074667 0.05710004
0002c0 a4 be 06 bd fb 74 47 bd 63 05 33 3e d8 31 81 bd
       -0.032896653 -0.048695546 0.17482524 -0.06308335
0002d0 9a c5 92 bb 34 46 ed bd 6c bb f8 bd 6e 9c 6c be
       -0.0044791223 -0.11585656 -0.12145123 -0.23106548
0002e0 9c 02 57 3e 76 79 a9 3d b8 6a 1f be 04 51 cf bc
       0.20997089 0.0827512 -0.15568054 -0.025307186
0002f0 56 ad f7 3d ce 33 8d bd 17 9c ac 3d 6c 92 92 bd
       0.12093608 -0.068946466 0.08428209 -0.07156834
000300 76 1c 4f 3e 71 72 9d 3d 2e 65 82 be f9 ba df 3d
       0.202257 0.076878436 -0.2546782 0.10924334
000310 20 03 b1 bd ff 44 79 3e b4 0b 62 3d 82 e6 c8 3d
       -0.08643174 0.24342726 0.055186942 0.09809591
000320 5e e5 00 be 19 74 37 be ec fa 77 3e a8 14 97 3e
       -0.12587497 -0.17915381 0.24216813 0.29507947
000330 d7 7a 81 3e 52 03 f2 3d d3 c4 83 be ef 7e 24 be
       0.25289032 0.118170395 -0.25736102 -0.16064046
000340 45 c3 1f be 6a e0 8c 3e 6e be d6 bd 7e 7d 84 be
       -0.15601833 0.27514964 -0.1048554 -0.25876993
000350 74 ec 94 3d d1 b8 af be a7 68 1c be 2f e1 30 bd
       0.07271662 -0.3432069 -0.15274297 -0.0431835
000360 55 0e 17 be b3 50 94 be 21 5e 19 be 3d 80 69 3e
       -0.14751561 -0.2896782 -0.14977314 0.22802825
000370 5c 67 11 3d c3 0f 91 be 32 25 58 be e1 f5 6c 3e
       0.03549896 -0.28332338 -0.21107939 0.2314067
000380 f6 c4 bc bd 31 34 52 3e 8b 8c 97 be 0d 20 81 3e
       -0.09217255 0.20527722 -0.29599413 0.25219765
000390 ff b7 44 bb c2 52 64 bd 0d 3f fa 3d ee b2 77 bd
       -0.0030016897 -0.055742987 0.12219057 -0.060473375
0003a0 78 1c d6 bd 17 8d b1 3c ee be 1f be 34 c4 71 3e
       -0.10454649 0.021673722 -0.15600178 0.23610002
0003b0 60 1a ef bd 7c b7 2a be 47 58 f2 3d 65 19 a3 bd
       -0.116749525 -0.16671556 0.11833244 -0.07963828
0003c0 92 55 3c be 0f 38 79 3e a1 68 4d bb 90 76 9e 3e
       -0.18392017 0.24337791 -0.0031342881 0.3094983
0003d0 f5 44 34 3e 59 9e 62 3d b4 6e 04 be cb f0 3f 3e
       0.1760443 0.055326793 -0.12932855 0.18744199
0003e0 05 50 71 3e a3 ad 11 be 8d 3d 8c be 7a 4d 96 be
       0.23565681 -0.14226393 -0.2739071 -0.29355985
0003f0 d9 28 ae 3e bc ea a5 be 1c 65 83 3e b1 90 2d be
       0.3401554 -0.3240565 0.25663078 -0.16949727

lstm.bias_ih_l1 f4 [256]
000000 7b c6 82 3e 3a 3a 2a 3c 37 91 9c 3c bc 37 d0 bd
       0.25542054 0.010389859 0.019112213 -0.101668805
000010 97 fa af 3d 0d 4c f7 3d 23 6d 83 3c ba 41 02 3e
       0.08592718 0.120750524 0.016043251 0.12720385
000020 4f d9 0d 3d 01 63 d0 3d 69 ed 36 3e c8 38 e4 bd
       0.03463107 0.101751335 0.17864002 -0.11143643
000030 e6 42 80 3c 11 e1 a9 bd f6 6a fb 3d 75 f1 9a bc
       0.0156569 -0.08294881 0.122762606 -0.018913964
000040 22 2d 9a bd 3f 35 8c 3d 18 18 bf 3d c1 1e 38 bd
       -0.0752814 0.068460934 0.093307674 -0.044951204
000050 62 d6 4b 3e 52 45 4e 3e b1 08 d5 3d 3f e3 7b 3e
       0.19906 0.20143631 0.104020484 0.24598406
000060 5f 54 a6 bd c3 c7 de 3d 10 af 21 3e 23 e6 c9 bd
       -0.08121561 0.10877945 0.15789437 -0.09858348
000070 bd 83 a3 3d 7a de ae 3c 3d 99 58 bc ca bf 8c 3d
       0.079841115 0.02134632 -0.013220129 0.06872518
000080 84 8a a9 3d 97 6d b0 3d e1 db 25 3c 00 9e fd 3c
       0.08278373 0.086146526 0.010123224 0.03095913
000090 74 8d 49 3d 25 21 78 bd be d2 1a 3c a1 6a bb 3d
       0.049207166 -0.060578484 0.009449659 0.09151197
0000a0 6e 6e 06 be af 77 c9 bc eb e4 bf 3a d4 65 18 3d
       -0.13128063 -0.024593202 0.0014640366 0.037206486
0000b0 0b 2f 5b 3d b6 40 88 bd e0 40 3b 3d 38 ae f1 bb
       0.05351166 -0.06652968 0.045716166 -0.007375505
0000c0 67 2f 9e 3d cd 38 db bd 54 d9 18 3d 4f 78 96 3d
       0.07723885 -0.10704193 0.037316635 0.07347166
0000d0 d6 95 bd 3d 7f 52 81 3e 65 38 95 bd c4 b2 84 bd
       0.092570946 0.25258252 -0.07286147 -0.06479409
0000e0 7d f7 fc 3d e4 63 2f bd 93 64 8b bc 9b 09 30 bc
       0.12351892 -0.042819872 -0.017015731 -0.010744478
0000f0 8a 2f 0f bd 6b 65 d0 3d 6d 63 89 3d c0 d0 68 3d
       -0.034957446 0.10175594 0.06708417 0.056839705
000100 c1 f2 9f bd e7 fa 05 3d e9 13 f2 3b 38 23 ed 3d
       -0.078099735 0.032709982 0.0073876274 0.11578983
000110 45 4a 54 3d b1 76 27 3d 3d 8d b8 bd ad 85 c3 3d
       0.05182864 0.040884677 -0.09011314 0.09546981
000120 7f 5b 8c 3d a0 0b 9f bd 34 d4 8a bd 81 68 a9 bd
       0.06853389 -0.07765889 -0.06778756 -0.08271886
000130 bd a0 db 3d 3f cd 81 3d b5 3a 0e bc 72 f2 c3 bc
       0.10724018 0.06337976 -0.008680989 -0.023919318
000140 27 24 ad bc 02 dd 51 3d d1 cd 8f 3d d8 e8 8f bc
       -0.021135403 0.05123616 0.07021678 -0.017567083
000150 19 ae b7 bd ad 8b 18 3e 7a 59 90 bd 25 13 0d 3c
       -0.08968753 0.14897032 -0.07048316 0.008610521
000160 51 f3 ff 3d 66 27 b7 3d f1 15 83 3c a5 12 10 3d
       0.12497581 0.089430615 0.016001673 0.03517403
000170 e6 ae ae 3d 2c b9 95 bd be 37 4e 3d 6e 63 1e 3e
       0.08529453 -0.07310709 0.05034613 0.15467617
000180 be 52 e7 bd 44 71 e9 3d 8a 70 16 3e a2 08 fe 3b
       -0.11295079 0.11398557 0.14691368 0.007752494
000190 3e 12 a8 bd 23 7a 95 bc e1 69 03 3e 0d be cb 3d
       -0.082066044 -0.018246716 0.12833358 0.09948359
0001a0 fe ca a2 3d 29 5e 54 3c f7 f2 cc 3d 37 67 af 3d
       0.07948874 0.012961903 0.10007279 0.085646085
0001b0 3a b6 84 bd 8e bb 35 3e da 9a 8d bc 39 b2 b2 3c
       -0.064800695 0.17747328 -0.017285753 0.021813499
0001c0 4d d2 1a bc b8 f6 d6 bc 84 8b 02 3e 7a 18 0e 3e
       -0.009449554 -0.026240692 0.12748533 0.13876525
0001d0 29 9a 8b bc aa 89 99 bd 62 93 eb bc ca 58 51 3a
       -0.017041283 -0.074969605 -0.028756801 0.0007985948
0001e0 b7 a3 22 bd d8 6b 30 3d e1 0f 6e 3d 88 1c 14 3e
       -0.039706912 0.043071598 0.058120612 0.14464009
0001f0 ad e3 40 bd 7f 20 c3 bd c0 4b c9 3d e5 65 1a 3e
       -0.04709213 -0.095276825 0.09828901 0.15077932
000200 90 e3 96 bc 8e 58 3b 3d 7b 73 41 bd 06 ed 80 bd
       -0.018419057 0.04573875 -0.04722927 -0.06295209
000210 9a 91 c0 bd 9d ba da bd ff 68 48 bd 18 37 00 3e
       -0.09402771 -0.10680125 -0.048928257 0.12521017
000220 2a ac 03 be 14 e7 e3 3d 8a 06 ef bc 23 ab ac bc
       -0.12858644 0.11128059 -0.029177923 -0.021077698
000230 cd 81 9e bd 44 50 08 3d bf 9c a2 ba 8e d7 57 bd
       -0.07739601 0.033279672 -0.0012406333 -0.052695803
000240 7d 83 8e 3c f1 74 03 3e 46 e3 f2 bd 25 8f 80 3d
       0.017396683 0.12837578 -0.11859755 0.06277303
000250 f2 fb a4 bd 87 21 b5 bd db b6 8c bd b4 c5 bb 3d
       -0.08055867 -0.088442855 -0.068708144 0.09168568
000260 9e 77 12 bc 59 69 67 3d d8 58 23 bd 94 55 ed bc
       -0.008939652 0.05649695 -0.03987965 -0.02897147
000270 64 20 95 3d 60 20 b5 3d ce e9 1d 3d 66 c3 cc 3d
       0.07281569 0.08844066 0.03855305 0.09998207
000280 ea c7 9a 3c e2 c9 06 3c ac 5e 0d bd 5a 65 17 3d
       0.018894155 0.008226844 -0.034514114 0.03696189
000290 3c 2e 13 be 42 c3 f8 bd 19 25 8a 3d 78 18 4b 3d
       -0.14373106 -0.121466175 0.06745357 0.049583882
0002a0 57 05 a2 bd c3 8f be 3c 1f 18 06 be ae 05 c8 3d
       -0.07911175 0.02326191 -0.13095139 0.09766708
0002b0 82 c6 6f bd 90 9b 83 bd 94 ee 59 3d e1 aa 7b 3d
       -0.05853892 -0.064261556 0.05320604 0.06144226
0002c0 f2 d0 b6 bd cc 45 77 3d 46 e1 55 3d 25 a0 02 3e
       -0.08926572 0.060369298 0.05221679 0.12756403
0002d0 d0 50 1e bc 24 5f 04 bb 26 84 07 bd e7 32 ed 3d
       -0.009662822 -0.002019831 -0.03308501 0.115819745
0002e0 e1 d5 dc 3b fc 52 1a be b7 02 7d bd 05 b0 c7 bc
       0.0067393635 -0.15070719 -0.061770167 -0.024375925
0002f0 35 17 1f 3e 86 d0 c3 bc cb 36 45 bd 4c b0 2a 3d
       0.15536197 -0.023903143 -0.048147958 0.041672036
000300 df 77 f2 3c f5 46 80 3d 03 e4 ef bb 8a 0f 84 bd
       0.029598175 0.06263534 -0.0073208823 -0.06448276
000310 41 0e 6a 3c 77 1e 18 3d ab 6a f2 3d 42 6e c3 3d
       0.014285625 0.03713843 0.118367516 0.095425144
000320 06 4d bc 3c b9 a5 cd 3d 1c f3 d2 3d 90 2a ac 3d
       0.022985946 0.10041375 0.10300276 0.08406556
000330 2a 4a 40 3d 86 5f 5c 3e 21 1c 65 bc a7 70 54 3e
       0.04694573 0.21520814 -0.013983757 0.20746098
000340 9f 07 8e 3e 86 59 55 3c e5 ff 7d 3d 92 7c bf 3d
       0.2774019 0.013021832 0.06201162 0.09349932
000350 14 b0 47 3e ae 56 4a 3d b1 ed e8 3d 99 fa 89 3e
       0.19500762 0.04939907 0.11373461 0.26949003
000360 ff 38 01 bc 32 e3 09 bd 6e 96 8c 3c b2 6e ab 3d
       -0.007887124 -0.033663936 0.017161574 0.08370723
000370 b8 bc 05 bd 36 89 06 bd 30 c5 9d 3d 42 2d 8b 3d
       -0.03265068 -0.0328457 0.07703626 0.067957416
000380 1a 3c 16 3e 60 21 a6 3b 7c 84 11 3d 3e 7a 43 bd
       0.14671364 0.0050698966 0.035526738 -0.047724
000390 03 8a db 3d e0 e1 b4 bd 3b 1f 86 bd 96 f5 da bd
       0.10719683 -0.08832145 -0.065489255 -0.10691373
0003a0 83 12 18 3e 44 64 8c bd 90 5c 2b bd 76 d7 55 3e
       0.14850812 -0.06855062 -0.04183632 0.20882973
0003b0 3a 3e d6 3c 16 5a 45 bb 8e aa bb bc 30 21 b6 3d
       0.026152719 -0.003011351 -0.022908475 0.08893049
0003c0 93 ba 16 3e a5 e7 b9 3d f5 8d 1a 3d 73 c2 3a 3e
       0.1471961 0.09077386 0.037733037 0.18238239
0003d0 09 fd e0 3d b4 00 6d 3d e5 5b 93 3d f5 84 5c 3e
       0.109857626 0.057862 0.07195262 0.21535094
0003e0 dd 6e cf bc 12 bd fc 3c 46 7a 42 3b 61 e6 12 bc
       -0.025321418 0.030851875 0.0029674931 -0.008966059
0003f0 92 08 05 3d 66 c5 03 3e 3e 89 1d 3d 95 1a 9a 3d
       0.032478876 0.1286827 0.038460962 0.07524601
